…
                  "_derivationally_related_form",
                  "00681429"
                ],
                [
                  "00033615",
                  "_hypernym",
                  "00002137"
                ]
              ]
            }
          },
          "other": {
            "InductiveModel": "InductiveNodePiece(\n  (loss): MarginRankingLoss(\n    (margin_activation): ReLU()\n  )\n  (interaction): DistMultInteraction()\n  (entity_representations): ModuleList(\n    (0): NodePieceRepresentation(\n      (base): ModuleList(\n        (0): TokenizationRepresentation(\n          (vocabulary): Embedding(\n            (_embeddings): Embedding(19, 50)\n          )\n        )\n      )\n      (combination): ConcatAggregationCombination(\n        (aggregation): ConcatMLP(\n          (0): Linear(in_features=100, out_features=100, bias=True)\n          (1): Dropout(p=0.1, inplace=False)\n          (2): ReLU()\n          (3): Linear(in_features=100, out_features=50, bias=True)\n        )\n      )\n    )\n  )\n  (relation_representations): ModuleList(\n    (0): SubsetRepresentation(\n      (base): Embedding(\n        (_embeddings): Embedding(19, 50)\n      )\n    )\n  )\n  (weight_regularizers): ModuleList()\n  (_mode_to_representations): ModuleDict(\n    (training_representations): ModuleList(\n      (0): NodePieceRepresentation(\n        (base): ModuleList(\n          (0): TokenizationRepresentation(\n            (vocabulary): Embedding(\n              (_embeddings): Embedding(19, 50)\n            )\n          )\n        )\n        (combination): ConcatAggregationCombination(\n          (aggregation): ConcatMLP(\n            (0): Linear(in_features=100, out_features=100, bias=True)\n            (1): Dropout(p=0.1, inplace=False)\n            (2): ReLU()\n            (3): Linear(in_features=100, out_features=50, bias=True)\n          )\n        )\n      )\n    )\n    (validation_representations): ModuleList(\n      (0): NodePieceRepresentation(\n        (base): ModuleList(\n          (0): TokenizationRepresentation(\n            (vocabulary): Embedding(\n              (_embeddings): Embedding(19, 50)\n            )\n          )\n        )\n        (combination): ConcatAggregationCombination(\n          (aggregation): ConcatMLP(\n            (0): Linear(in_features=100, out_features=100, bias=True)\n            (1): Dropout(p=0.1, inplace=False)\n            (2): ReLU()\n            (3): Linear(in_features=100, out_features=50, bias=True)\n          )\n        )\n      )\n    )\n    (testing_representations): ModuleList(\n      (0): NodePieceRepresentation(\n        (base): ModuleList(\n          (0): TokenizationRepresentation(\n            (vocabulary): Embedding(\n              (_embeddings): Embedding(19, 50)\n            )\n          )\n        )\n        (combination): ConcatAggregationCombination(\n          (aggregation): ConcatMLP(\n            (0): Linear(in_features=100, out_features=100, bias=True)\n            (1): Dropout(p=0.1, inplace=False)\n            (2): ReLU()\n            (3): Linear(in_features=100, out_features=50, bias=True)\n          )\n        )\n      )\n    )\n  )\n)"
          },
          "relations": []
        },
        "error": null,
        "input_metadata": [
          {
            "dataframes": {
              "early_stopper_metric": {
                "columns": [
                  "early_stopper_metric"
                ],
                "key": "early_stopper_metric"
…
