…
                  0.6749326785405477
                ],
                [
                  0.6796486477057139
                ],
                [
                  0.6666983962059021
                ],
                [
                  0.6566551129023234
                ],
                [
                  0.6356058021386465
                ],
                [
                  0.6520007948080698
                ]
              ]
            }
          },
          "other": {
            "model": "ConvE(\n  (loss): BCEAfterSigmoidLoss()\n  (interaction): ConvEInteraction(\n    (hr2d): Sequential(\n      (0): BatchNorm2d(1, eps=1e-05, momentum=0.1, affine=True, track_running_stats=True)\n      (1): Dropout(p=0.2, inplace=False)\n      (2): Conv2d(1, 32, kernel_size=(3, 3), stride=(1, 1))\n      (3): BatchNorm2d(32, eps=1e-05, momentum=0.1, affine=True, track_running_stats=True)\n      (4): ReLU()\n      (5): Dropout2d(p=0.2, inplace=False)\n    )\n    (hr1d): Sequential(\n      (0): Linear(in_features=10368, out_features=200, bias=True)\n      (1): Dropout(p=0.3, inplace=False)\n      (2): BatchNorm1d(200, eps=1e-05, momentum=0.1, affine=True, track_running_stats=True)\n      (3): ReLU()\n    )\n  )\n  (entity_representations): ModuleList(\n    (0): Embedding(\n      (_embeddings): Embedding(14, 200)\n    )\n    (1): Embedding(\n      (_embeddings): Embedding(14, 1)\n    )\n  )\n  (relation_representations): ModuleList(\n    (0): Embedding(\n      (_embeddings): Embedding(55, 200)\n    )\n  )\n  (weight_regularizers): ModuleList()\n)"
          },
          "relations": []
        },
        "error": null,
        "input_metadata": [
          {
            "dataframes": {
              "edges": {
                "columns": [
                  "relation",
                  "source",
                  "target"
                ],
                "key": "edges"
              },
…
                ],
                [
                  5.245261771338327
                ],
                [
                  1.8811712775911604
                ],
                [
                  1.3005778789520264
                ],
                [
                  1.041627083505903
                ]
              ]
            }
          },
          "other": {
            "model": "RGCN(\n  (loss): MarginRankingLoss(\n    (margin_activation): ReLU()\n  )\n  (interaction): DistMultInteraction()\n  (entity_representations): ModuleList(\n    (0): RGCNRepresentation(\n      (entity_embeddings): Embedding(\n        (_embeddings): Embedding(14, 500)\n      )\n      (edge_weighting): SymmetricEdgeWeighting()\n      (layers): ModuleList(\n        (0-1): 2 x RGCNLayer(\n          (fwd): BasesDecomposition(\n            (relation_representations): LowRankRepresentation(\n              (base): Embedding(\n                (_embeddings): Embedding(8, 250000)\n              )\n              (weight): Embedding(\n                (_embeddings): Embedding(55, 8)\n              )\n            )\n          )\n          (bwd): BasesDecomposition(\n            (relation_representations): LowRankRepresentation(\n              (base): Embedding(\n                (_embeddings): Embedding(8, 250000)\n              )\n              (weight): Embedding(\n                (_embeddings): Embedding(55, 8)\n              )\n            )\n          )\n          (self_loop): Linear(in_features=500, out_features=500, bias=True)\n          (dropout): Dropout(p=0.2, inplace=False)\n        )\n      )\n    )\n  )\n  (relation_representations): ModuleList(\n    (0): Embedding(\n      (_embeddings): Embedding(55, 500)\n    )\n  )\n  (weight_regularizers): ModuleList()\n)"
          },
          "relations": []
        },
        "error": null,
        "input_metadata": [
          {
            "dataframes": {
              "edges": {
                "columns": [
                  "relation",
                  "source",
                  "target"
                ],
                "key": "edges"
              },
…
