…
0.43827343  0.1443032\n -0.32194117  0.16631874  0.40968606 -0.39393827]"
                ]
              ]
            },
            "training": {
              "columns": [
                "training_loss"
              ],
              "data": [
                [
                  … "other": {
            "model": "CompGCN(\n  (loss): MarginRankingLoss(\n    (margin_activation): ReLU()\n  )\n  (interaction): DistMultInteraction()\n  (entity_representations): ModuleList(\n    (0): SingleCompGCNRepresentation(\n      (combined): CombinedCompGCNRepresentations(\n        (entity_representations): Embedding(\n          (_embeddings): Embedding(14, 64)\n        )\n        (relation_representations): Embedding(\n          (_embeddings): Embedding(110, 64)\n        )\n        (layers): ModuleList(\n          (0): CompGCNLayer(\n            (composition): MultiplicationCompositionModule()\n            (edge_weighting): SymmetricEdgeWeighting()\n            (w_rel): Linear(in_features=64, out_features=64, bias=False)\n            (drop): Dropout(p=0.0, inplace=False)\n            (bn): BatchNorm1d(64, eps=1e-05, momentum=0.1, affine=True, track_running_stats=True)\n            (bias): Bias()\n            (activation): Identity()\n          )\n        )\n      )\n    )\n  )\n  (relation_representations): ModuleList(\n    (0): SingleCompGCNRepresentation(\n      (combined): CombinedCompGCNRepresentations(\n        (entity_representations): Embedding(\n          (_embeddings): Embedding(14, 64)\n        )\n        (relation_representations): Embedding(\n          (_embeddings): Embedding(110, 64)\n        )\n        (layers): ModuleList(\n          (0): CompGCNLayer(\n            (composition): MultiplicationCompositionModule()\n            (edge_weighting): SymmetricEdgeWeighting()\n            (w_rel): Linear(in_features=64, out_features=64, bias=False)\n            (drop): Dropout(p=0.0, inplace=False)\n            (bn): BatchNorm1d(64, eps=1e-05, momentum=0.1, affine=True, track_running_stats=True)\n            (bias): Bias()\n            (activation): Identity()\n          )\n        )\n      )\n    )\n  )\n  (weight_regularizers): ModuleList()\n)"
          },
          "relations": []
        },
        "error": null,
        "input_metadata": [
          {
            "dataframes": {
              "edges": {
                "columns": [
…
